sin_predictor.tflite (tflite, 12024 bytes, 7 tensors)

tfl.pseudo_qconst1 i1 [1, 64] scale=0.003255002 zero_point=0
-0.003255002 -0.26040015 -0.08788505 -0.03580502 0.039060023 0.058590036 -0.04882503 0.022785014
0.0 0.107415065 -0.03255002 0.21483013 -0.38409024 -0.042315025 -0.11067007 0.38409024
0.14647509 0.006510004 0.013020008 -0.003255002 0.042315025 0.11718007 0.0 0.0
0.003255002 0.1757701 0.0 0.19204512 0.1594951 0.01627501 0.006510004 -0.003255002
-0.10090506 0.123690076 0.19530012 0.25714517 0.18879011 0.27993017 -0.18553512 -0.23761514
0.003255002 0.026040016 0.09439506 0.042315025 0.13020007 0.22134013 0.1627501 -0.13671008
-0.30271518 0.0 0.022785014 0.13671008 0.0 0.03255002 -0.07486504 0.18228011
0.13671008 0.08463005 -0.022785014 0.32224518 -0.026040016 -0.41338524 -0.23110513 0.18879011
00000000: ffb0 e5f5 0c12 f107 0021 f642 8af3 de76
00000010: 2d02 04ff 0d24 0000 0136 003b 3105 02ff
00000020: e126 3c4f 3a56 c7b7 0108 1d0d 2844 32d6
00000030: a300 072a 000a e938 2a1a f963 f881 b93a

tfl.pseudo_qconst2 i1 [1, 64] scale=0.0068376358 zero_point=4
-0.17094089 -0.58803666 -0.5606861 -0.47179687 0.33504415 0.37606996 -0.49230978 -0.4581216
0.0 -0.73846465 -0.5606861 0.7111141 -0.73162705 -0.49914742 0.47179687 0.8410292
0.6700883 0.14359035 -0.30085596 0.27350542 -0.5538485 -0.54701084 -0.0136752715 -0.0068376358
0.20512907 -0.68376356 0.12991507 0.5196603 -0.64273775 0.5196603 0.3623947 0.4581216
0.49914742 0.5948743 -0.78632814 0.6153872 -0.54701084 0.78632814 -0.5743614 -0.79316574
0.5606861 0.45128396 0.58803666 0.48547214 0.69743884 0.7521399 -0.7042765 -0.5606861
-0.8752174 -0.12991507 0.46495923 0.73162705 0.020512907 0.6085496 0.48547214 -0.7111141
0.53333557 0.41709578 0.4376087 0.7453023 0.4034205 -0.9025679 -0.7658152 0.7042765
00000000: ebae b2bf 353b bcc1 0498 b26c 99bb 497f
00000010: 6619 d82c b3b4 0203 22a0 1750 a650 3947
00000020: 4d5b 915e b477 b090 5646 5a4b 6a72 9db2
00000030: 84f1 486f 075d 4b9c 5241 4471 3f80 946b

tfl.pseudo_qconst3 i1 [1, 64] scale=0.00013984535 zero_point=-128
0.00992902 0.009369638 0.02195572 0.018879121 0.019018967 0.010907937 0.028668296 0.015802525
0.0 0.009369638 0.013425153 0.009649329 0.009369638 0.011886855 0.011747009 0.019997884
0.012725927 0.007411803 0.012446236 0.010768091 0.01859943 0.02615108 0.0020976802 0.00041953602
0.011747009 0.017200978 0.0046148966 0.013984535 0.017200978 0.025451854 0.017200978 0.035660565
0.009089948 0.013844689 0.010488401 0.010768091 0.013425153 0.01230639 0.009229793 0.017900204
0.011187628 0.010348556 0.016641596 0.019997884 0.006432886 0.013145463 0.012166545 0.009369638
0.01859943 0.0120267 0.021676028 0.008250875 0.001957835 0.017760359 0.010628247 0.014963452
0.010488401 0.020836957 0.013285308 0.013564998 0.015382988 0.016641596 0.017480668 0.017620513
00000000: c7c3 1d07 08ce 4df1 80c3 e0c5 c3d5 d40f
00000010: dbb5 d9cd 053b 8f83 d4fb a1e4 fb36 fb7f
00000020: c1e3 cbcd e0d8 c200 d0ca f70f aede d7c3
00000030: 05d6 1bbb 8eff cceb cb15 dfe1 eef7 fdfe

tfl.pseudo_qconst5 i1 [64, 64]
-21 -70 19 -16 -76 -24 -31 -26
-103 63 116 16 -29 43 22 62
-16 -40 13 51 -1 -34 35 -43
2 33 -19 -89 -127 -44 27 4
-12 -110 22 47 21 -49 14 36
-57 51 41 -37 29 29 -67 111
35 -4 41 -38 48 -25 15 -37
-28 48 85 36 59 23 -8 -14
-12 9 18 0 -34 -18 -3 -127
-19 4 -22 -11 34 12 -5 -19
-27 106 -2 -15 4 -15 -60 27
-34 -81 43 38 40 -6 -41 7
-7 -15 5 -42 -7 -3 -110 2
104 -43 19 19 9 8 -18 -60
24 2 10 -3 -48 -29 -36 2
90 31 -8 -10 13 -80 0 47
-38 -10 77 -10 -13 66 4 -34
-78 14 71 61 49 58 12 28
44 12 -3 -44 127 -10 36 -23
-40 -21 3 -25 -7 -41 0 77
18 21 38 10 0 -30 4 12
39 36 20 1 -32 49 -3 8
40 54 36 -4 6 28 -58 12
-11 72 104 -46 28 21 -4 17
-3 22 32 -14 -3 7 -12 -24
-14 4 -19 -29 -6 15 -4 -12
-4 46 10 -13 6 -22 -51 17
-22 -102 23 10 24 -16 8 -11
14 -28 8 -5 -21 -11 -30 4
127 -29 6 29 -24 3 5 -53
15 -15 16 20 -31 -7 -28 -16
5 1 15 -30 -7 -8 20 13
00000000: ebba 13f0 b4e8 e1e6 993f 7410 e32b 163e
00000010: f0d8 0d33 ffde 23d5 0221 eda7 81d4 1b04
00000020: f492 162f 15cf 0e24 c733 29db 1d1d bd6f
00000030: 23fc 29da 30e7 0fdb e430 5524 3b17 f8f2
00000040: f409 1200 deee fd81 ed04 eaf5 220c fbed
00000050: e56a fef1 04f1 c41b deaf 2b26 28fa d707
00000060: f9f1 05d6 f9fd 9202 68d5 1313 0908 eec4
00000070: 1802 0afd d0e3 dc02 5a1f f8f6 0db0 002f
00000080: daf6 4df6 f342 04de b20e 473d 313a 0c1c
00000090: 2c0c fdd4 7ff6 24e9 d8eb 03e7 f9d7 004d
000000a0: 1215 260a 00e2 040c 2724 1401 e031 fd08
000000b0: 2836 24fc 061c c60c f548 68d2 1c15 fc11
000000c0: fd16 20f2 fd07 f4e8 f204 ede3 fa0f fcf4
000000d0: fc2e 0af3 06ea cd11 ea9a 170a 18f0 08f5
000000e0: 0ee4 08fb ebf5 e204 7fe3 061d e803 05cb
000000f0: 0ff1 1014 e1f9 e4f0 0501 0fe2 f9f8 140d

tfl.pseudo_qconst6 i1 [1, 64] scale=0.054965485 zero_point=5
2.3085504 2.7482743 5.221721 -1.484068 -3.0231016 -4.672066 -1.2642062 -4.8369627
-4.452204 1.2642062 5.936272 -3.3528945 -5.551514 6.156134 0.27482742 -0.54965484
6.705789 -1.2642062 -1.3741372 1.3191717 -2.2535849 -4.7270317 -0.49468938 -1.813861
-4.5071697 0.98937875 0.10993097 1.3741372 -1.923792 -0.7145513 -1.1542752 2.5833778
5.4965487 -7.3104095 -3.187998 -0.43972388 0.0 -1.0993097 -1.813861 -0.54965484
3.187998 3.297929 1.7588955 1.3741372 0.76951677 6.485927 -5.551514 -1.2642062
5.771376 0.054965485 2.8032398 -1.6489645 2.3085504 -2.7482743 -2.6383433 -1.0993097
2.6933088 4.781997 4.781997 1.70393 1.3191717 1.3741372 1.3741372 0.054965485
00000000: 2f37 64ea ceb0 eead b41c 71c8 a075 0afb
00000010: 7fee ec1d dcaf fce4 b317 071e e2f8 f034
00000020: 6980 cbfd 05f1 e4fb 3f41 251e 137b a0ee
00000030: 6e06 38e7 2fd3 d5f1 365c 5c24 1d1e 1e06

tfl.pseudo_qconst7 i1 [1, 64] scale=0.16206457 zero_point=-128
4.3757434 3.8895497 2.1068394 0.8103228 5.0240016 2.1068394 2.4309685 1.9447749
1.6206456 1.6206456 2.4309685 1.9447749 2.268904 2.4309685 1.9447749 2.1068394
2.9171622 3.727485 2.4309685 1.9447749 1.2965165 1.6206456 3.727485 2.593033
41.326466 2.1068394 2.268904 3.727485 4.537808 2.9171622 1.4585811 1.9447749
11.0203905 1.9447749 1.134452 1.4585811 2.268904 2.1068394 4.537808 1.2965165
8.265293 4.0516143 1.6206456 2.268904 1.9447749 1.134452 1.2965165 6.644647
1.134452 2.1068394 0.97238743 1.7827102 2.1068394 1.4585811 1.6206456 1.134452
3.5654204 1.9447749 2.268904 2.268904 1.134452 3.0792267 1.6206456 3.2412913
00000000: 9b98 8d85 9f8d 8f8c 8a8a 8f8c 8e8f 8c8d
00000010: 9297 8f8c 888a 9790 7f8d 8e97 9c92 898c
00000020: c48c 8789 8e8d 9c88 b399 8a8e 8c87 88a9
00000030: 878d 868b 8d89 8a87 968c 8e8e 8793 8a94

tfl.pseudo_qconst9 i1 [64, 7]
-26 -8 29 47 -8 -54 127 -16
-45 -36 -12 -28 -30 -127 -11 -47
-19 -19 -23 -32 -127 -63 -12 48
50 29 -19 -127 10 5 -20 27
8 -117 127 -23 67 75 20 -28
-127 -72 -4 2 -98 -127 -49 -58
-123 5 52 -19 -45 -13 -39 127
69 -3 -62 -3 -18 -23 127 29
32 117 29 15 85 127 -105 -8
107 11 -87 -80 127 -83 84 101
40 -23 -93 -127 -44 -23 22 50
34 1 -127 78 127 45 73 123
53 -40 37 1 72 78 -17 57
127 -13 127 62 25 6 -38 25
-127 -26 127 32 -116 -76 117 20
-42 -15 26 17 70 -127 -121 -70
-64 -51 -127 -3 -4 -115 -50 -45
-30 -52 -127 117 -98 37 63 23
11 -11 -127 -127 0 52 55 73
-22 -105 -127 59 68 33 -73 -124
56 127 -10 32 32 96 82 45
-7 44 -78 31 80 -127 69 -101
69 69 -17 -83 -48 127 127 -50
13 29 41 95 -32 127 -25 -78
-14 85 88 -116 37 -24 -24 -26
29 106 -127 -91 -110 -1 -46 -127
-71 66 32 64 0 -3 -3 -127
-2 -51 -34 3 -17 -29 -57 -127
44 -57 103 -98 113 -22 127 -127
62 53 26 5 -36 -66 -32 66
94 31 -25 -87 -127 -47 125 35
10 -85 -127 61 -117 67 2 -5
00000000: e6f8 1d2f f8ca 7ff0 d3dc f4e4 e281 f5d1
00000010: eded e9e0 81c1 f430 321d ed81 0a05 ec1b
00000020: 088b 7fe9 434b 14e4 81b8 fc02 9e81 cfc6
00000030: 8505 34ed d3f3 d97f 45fd c2fd eee9 7f1d
00000040: 2075 1d0f 557f 97f8 6b0b a9b0 7fad 5465
00000050: 28e9 a381 d4e9 1632 2201 814e 7f2d 497b
00000060: 35d8 2501 484e ef39 7ff3 7f3e 1906 da19
00000070: 81e6 7f20 8cb4 7514 d6f1 1a11 4681 87ba
00000080: c0cd 81fd fc8d ced3 e2cc 8175 9e25 3f17
00000090: 0bf5 8181 0034 3749 ea97 813b 4421 b784
000000a0: 387f f620 2060 522d f92c b21f 5081 459b
000000b0: 4545 efad d07f 7fce 0d1d 295f e07f e7b2
000000c0: f255 588c 25e8 e8e6 1d6a 81a5 92ff d281
000000d0: b942 2040 00fd fd81 fecd de03 efe3 c781
000000e0: 2cc7 679e 71ea 7f81 3e35 1a05 dcbe e042
000000f0: 5e1f e7a9 81d1 7d23 0aab 813d 8b43 02fb
