sin_predictor.tflite (tflite, 23000 bytes, 9 tensors)

arith.constant f4 [1, 64]
00000000: 2576 25bb 526a 85be 27bd b1bd 74c4 15bd
00000010: 5391 1b3d ad4a 763d 97f8 4cbd eb33 c23c
00000020: 42cb c3b3 c711 dc3d e86d 01bd 6984 5a3e
00000030: 3a78 c5be fca2 30bd fbd0 dfbd a66e c43e
00000040: fc67 173e e387 ff3b f669 693c 6a7f 9bbb
00000050: 5e9c 283d 6a01 ed3d a43e f8b8 fb95 32b8
00000060: a607 2a3b afac 343e e588 cf3a 2c0e 453e
00000070: e153 243e 479d 8a3c 541c fd3b 207b 33bb
00000080: 34df d1bd 2a42 ff3d 6d27 483e 72c1 833e
00000090: bdf0 403e b1c9 8e3e 3fee 3dbe af07 72be
000000a0: 749c 7c3b 9e53 c83c bbf2 c33d e4b6 2d3d
000000b0: ffa5 063e 88da 633e d47d 273e 029c 0bbe
000000c0: 014c 9abe 4b9d a5b9 0479 be3c d3a3 0d3e
000000d0: 9225 c839 7704 053d b96d 97bd 207b 393e
000000e0: b44a 0c3e 47c5 ad3d a36b afbc c770 a53e
000000f0: 8f7e d1bc 3ba7 d3be fa69 6dbe 967e 413e
-0.0025247422 -0.26057678 -0.08678656 -0.036564305 0.03798039 0.06012981 -0.05004176 0.023706397
-9.1173675e-08 0.10745578 -0.031598955 0.21339573 -0.38568288 -0.043124184 -0.10928532 0.38365668
0.1478576 0.0077981814 0.014246454 -0.0047454135 0.04116475 0.11572535 -0.00011837229 -4.2578187e-05
0.00259445 0.17643999 0.0015833644 0.19243687 0.16047622 0.016920699 0.0077243242 -0.002738662
-0.10247651 0.12463792 0.1954629 0.25733525 0.18841834 0.27888253 -0.18547915 -0.23635744
0.0038545402 0.024453934 0.095677815 0.042410746 0.1314926 0.22251332 0.16356593 -0.13633731
-0.3013611 -0.00031588445 0.023251064 0.13832025 0.00038174965 0.03247496 -0.07393975 0.18113375
0.13700372 0.08484893 -0.02141363 0.32312605 -0.025573043 -0.41338524 -0.23184958 0.18895945

arith.constant1 f4 [64, 64]
00000000: d759 ecbd 85d2 c4be 41f8 d93d 4b8e b1bd
00000010: de55 d6be bb9a 06be 2a28 30be c8ba 12be
00000020: 037c 11bf b5c0 b03e 8950 233f eb5a b23d
00000030: a0c7 22be 7859 753e 8ed2 f33d 4bec af3e
00000040: 54b2 b7bd 43aa 60be d7ab 913d 8fa2 8e3e
00000050: ab55 f9bb 58e4 3ebe f48b 443e d626 72be
00000060: db0e 213c f305 3a3e ae68 d5bd 28b2 fbbe
00000070: a03b 33bf 1de3 75be 3b9d 163e 7090 c53c
00000080: 7481 86bd 81b4 1abf c781 f93d 0453 853e
00000090: 4376 f13d 7f4a 89be c4d0 a23d 94c7 4c3e
000000a0: 9ee1 a1be 4491 8f3e 1ad3 643e c1ed 52be
000000b0: 3548 223e 239b 223e 5736 bebe 5c1c 1c3f
000000c0: 3cfb 423e 0a43 bcbc 3f67 683e 0e5d 54be
000000d0: bda3 863e bd29 0bbe 88bb a63d bd25 52be
000000e0: 89d4 1bbe 70a9 863e 7a44 f03e c4a8 483e
000000f0: ea34 a53e e0a7 fe3d 8da8 38bd a9d4 98bd
00000100: f96a 86be 1df7 4d3e 7e98 ca3e 8445 60bb
00000110: 6427 3abf 4647 c4be 4d8a 8cbd 7cdc 2dc0
00000120: da9f d1be b3a2 b93d ba99 eebe 9a4c 7abe
00000130: 7b71 3c3f f075 853e fe82 dfbd 1229 cebe
00000140: 26bc 13bf 874e 1140 313a 26bd 76af a4be
00000150: 4737 b73d 8f8f a1be 2477 a5bf 8913 153f
00000160: e9d0 39bf df59 debf 66e4 6a3f 079f 503f
00000170: e54e 5a3f 1bbf 0cbe feb7 60bf 256e 153e
00000180: 008c 16be 6248 9fbe c06e e93d 9cd8 64bf
00000190: 5909 1bbe bb81 87bd 0a53 16c0 c933 453d
000001a0: b245 0e40 34f6 68bf d3e4 ce3e 9344 cf3e
000001b0: fb1f 4f3e cdb6 253e fd00 c3be 03a5 a5bf
000001c0: 71ec 013f 5ce7 3f3d 63d4 643e e6ca 73bd
000001d0: 190e 82bf d163 1dbf 9647 43bf 1acc 193d
000001e0: b89d f53f 13b6 2b3f b62e 37be 9c0a 5ebe
000001f0: fb4e 8d3e 5573 dabf bb78 0a3b 00d0 803f
00000200: 6b9a afbe 3071 b7bd bac3 333f ce47 bbbd
00000210: 9083 f5bd 8e2b 1b3f 398b 1c3d c582 9ebe
00000220: 9202 37bf ccdd fc3d 3393 253f 5f90 0d3f
00000230: cee6 e53e 4caf 073f 3688 d83d 0c7e 843e
00000240: c97e cd3e b35b dd3d ac20 ecbc b507 cebe
00000250: 3c60 943f 217c b2bd ddd8 a93e 4030 57be
00000260: 47f7 babe deb1 44be ab82 e13c 6c8d 6bbe
00000270: be9d 86bd 3884 bdbe d05f 383b 3e32 343f
00000280: 0655 263e c37a 473e 94a2 af3e 2d31 b83d
00000290: a160 bf3a b4bb 8cbe c31c 243d 3675 e93d
000002a0: 6b86 b53e 6e0e aa3e 21d0 363e 9451 ee3b
000002b0: 99ab 96be ccf2 e53e 9603 debc 5458 9c3d
000002c0: 9759 b93e ea57 fe3e 3911 a63e db33 18bd
000002d0: e9e9 723d f385 833e a381 06bf 536e d93d
000002e0: 5ef6 c7bd cd45 273f 4f2c 743f a89d d8be
000002f0: b5d1 823e 174c 433e 7a87 15bd 5c7b 1d3e
00000300: e34d f2bc 8309 803e 3db0 b93e 262e 1cbe
00000310: f1cd 12bd bb79 9b3d 1fb8 0dbe 315a 8dbe
00000320: 183f 23be 03c2 2e3d 1c7a 57be 14bb a5be
00000330: 75cb 8cbd 497b 2a3e f0e7 4abd d4d0 05be
00000340: 53d9 41bd 6194 033f 3585 de3d 9cb6 1bbe
00000350: 1baf 883d 6ebc 81be da06 14bf f9e6 403e
00000360: 940a 80be eee7 92bf 23b7 823e d83a e03d
00000370: 336a 8c3e de41 3dbe 7e0d bb3d 1a4a 04be
00000380: 6fc8 253e 0329 a4be 0248 b63d ca27 51bd
00000390: c7f9 71be d30f f3bd dc68 aabe 470a 463d
000003a0: 5947 b73f 0a1e a9be 6ac8 813d 62f5 a63e
000003b0: 1f42 8bbe 918e 203d 3c39 533d c3d8 17bf
000003c0: b76c 2f3e 2466 2abe 277f 3d3e 9918 683e
000003d0: 063b b1be bba2 a6bd 9f21 a0be 3d16 3bbe
000003e0: 4e7f 763d b51b 4a3c 9233 2f3e 364b afbe
000003f0: d007 a4bd f067 aebd f734 673e 7777 153e
-0.11540573 -0.38441864 0.10643054 -0.08669718 -0.41862386 -0.13144962 -0.17202821 -0.14329064
-0.5682985 0.34522024 0.6379476 0.087087475 -0.15896463 0.23959911 0.119053945 0.34359965
-0.0896956 -0.2193995 0.07112854 0.27858397 -0.0076090894 -0.18641794 0.19194013 -0.23647627
0.009830202 0.18166332 -0.10420357 -0.4915936 -0.70012856 -0.24012418 0.14708416 0.024116725
-0.0656766 -0.6043168 0.12182956 0.26039898 0.11790135 -0.26814649 0.07949975 0.19998008
-0.31617445 0.28040516 0.22346154 -0.20598508 0.15847857 0.15879492 -0.37150833 0.6098077
0.19041151 -0.022981185 0.22695635 -0.20738623 0.26296797 -0.1359014 0.081412375 -0.20522209
-0.15217794 0.26301146 0.46927243 0.19595629 0.32266933 0.12434363 -0.045082618 -0.07462437
-0.2625349 0.20113797 0.39569467 -0.0034221122 -0.72716355 -0.38335627 -0.06862316 -2.7165823
-0.4094227 0.090642355 -0.4660166 -0.24443284 0.7361066 0.26066542 -0.10913657 -0.4026571
-0.57708967 2.270418 -0.04058284 -0.32165116 0.0894609 -0.3155484 -1.2926984 0.58232933
-0.72584397 -1.7371176 0.9175476 0.81492656 0.85276634 -0.13744776 -0.8778075 0.14592798
-0.14701843 -0.3110991 0.11398077 -0.8939302 -0.15140285 -0.06616541 -2.3488183 0.04814509
2.2230039 -0.91000676 0.40408954 0.40482005 0.20227043 0.16183014 -0.38086691 -1.2940983
0.50751406 0.0468515 0.22346644 -0.05951967 -1.0160552 -0.6148043 -0.76281106 0.037548162
1.9188757 0.670747 -0.17888913 -0.21683735 0.2759932 -1.7066447 0.002112909 1.0063477
-0.342975 -0.08957136 0.7022053 -0.09144555 -0.11987984 0.60613334 0.03821871 -0.30959144
-0.71488297 0.12346992 0.64677733 0.5529842 0.44902653 0.53001857 0.10572855 0.25877416
0.40135792 0.10808506 -0.028824173 -0.40240255 1.1591868 -0.08715082 0.33173266 -0.210145
-0.36516783 -0.19208476 0.027528128 -0.23003167 -0.06573056 -0.37014937 0.002813328 0.70389163
0.16243371 0.19480424 0.34303725 0.089937545 0.0014600941 -0.27486956 0.04006649 0.11399309
0.35454115 0.33214134 0.17852832 0.0072729085 -0.29427794 0.44911802 -0.02710132 0.07634035
0.36201164 0.49676448 0.32435015 -0.03715883 0.059305105 0.25688133 -0.5254156 0.10616746
-0.09763788 0.6534088 0.9538011 -0.42307782 0.2555062 0.19071995 -0.036506154 0.15379089
-0.029578155 0.25007257 0.36267272 -0.15251979 -0.035840932 0.075915776 -0.13839768 -0.27607873
-0.15942037 0.042665493 -0.21042675 -0.32369292 -0.06874744 0.16648592 -0.0495376 -0.13067943
-0.047326397 0.51398283 0.10865251 -0.15206379 0.06674024 -0.25339073 -0.57822955 0.18838109
-0.2500807 -1.1477029 0.25530347 0.109487236 0.27424774 -0.18482158 0.09133433 -0.12918893
0.1618974 -0.3206254 0.08900453 -0.051063336 -0.23630439 -0.118682526 -0.33283126 0.048349645
1.4318649 -0.3303073 0.06337054 0.32609087 -0.27198884 0.039198462 0.051568255 -0.5931513
0.17131315 -0.16640526 0.18505536 0.22665633 -0.34615344 -0.08136507 -0.3127565 -0.18270202
0.06018 0.012335707 0.17109516 -0.3423707 -0.080093026 -0.08515918 0.22578798 0.14596353

arith.constant3 f4 [64]
00000000: b794 9fbe f9c8 37bf b3c8 d8bf 1ff7 6e3f
00000010: fe2a 703e 3375 dd3f cedc fc3e 1b54 833f
00000020: aed1 2c3f 624f eb3e d743 b1bf a096 af3f
00000030: 8477 d63f 2388 21bf e489 1d3f 85ff e33e
00000040: 093b b4bf 86e4 483f e72d 4e3e 7874 2fbf
00000050: d348 f33f 69bf 20bd 355d 87be 48aa 493f
00000060: 2d9a e03d bd0a b7bf f8f6 f63e bed4 2cbf
00000070: 2814 da3e 37f0 9a3e 1f4d 93bf f0a8 aabf
00000080: 7aaf afbe 6511 5a3f 352a c53f 97de 01bf
00000090: 8833 69bf 6d2e ba3e 9e4c 4c3f b939 1a3f
000000a0: b34f 1e3f 0831 28bf 0a4b a63f 8ff0 1b3f
000000b0: f4b3 043f 71bc a93c 1856 74bf 41b1 003f
000000c0: e649 253f 982d 623f d5ed 27be 581f 793f
000000d0: 3fbf 91bf c0bf d0bf b08f 87bf 7332 d23e
000000e0: 53a1 c3be e151 acbf 6d82 64bf e7ff 71bf
000000f0: d02c 383f ddb5 34bf 96c3 3bbf 1966 593f
-0.31168148 -0.71791035 -1.6936249 0.93345827 0.234539 1.7301391 0.4938721 1.0260042
0.67507446 0.45959002 -1.3848828 1.3717842 1.6755223 -0.63098353 0.6153853 0.44530883
-1.4080516 0.784737 0.20134698 -0.6853709 1.9006599 -0.039245043 -0.264383 0.78775454
0.10966907 -1.4300152 0.48235297 -0.6751212 0.42593503 0.30261394 -1.150791 -1.3332806
-0.34313565 0.8518279 1.5403506 -0.5073027 -0.91094255 0.36363545 0.7980441 0.6024433
0.6184036 -0.65699816 1.299165 0.6091394 0.51837087 0.020719739 -0.9544387 0.5027047
0.64565885 0.8835082 -0.1639932 0.9731345 -1.1386489 -1.6308517 -1.0590725 0.41054115
-0.38209018 -1.3462487 -0.89261514 -0.945311 0.7194338 -0.7059 -0.73345315 0.84921414

arith.constant4 f4 [64]
00000000: 32c1 0e3f 37ce 893f 1906 553f 68dd 2abd
00000010: 5363 e6be a66e 70bf 8467 683f 3a43 1a40
00000020: 10ef 433e 4a62 263f 87a3 cd3e 3f9c 5abf
00000030: 2ed5 8f3f bfaf da3e d224 b1bf 7b11 5ebf
00000040: 76ad 89be c144 18bf c318 673f 5b82 3dbd
00000050: 1cb9 5f3e 58e5 4b3e 2964 853e dc47 073f
00000060: 6e49 31be 239c 633f 61c9 43be b5ef 1cbe
00000070: 5a26 5f3f 54ae 99be 5ae4 a6be 9e21 86be
00000080: f43a 41bf 4475 edbd 6aac 6e3f 1454 05c0
00000090: 0aa5 f83f f209 1ebf c4b5 cb3e 86cf 2d3f
000000a0: 216c 7abf 90a0 9cbe 6989 eabe 2e0a 10bf
000000b0: e373 90c0 56b6 4abf fe93 8e3f e4c8 183f
000000c0: 12bc a33f bf4a 743e 8741 88be c095 8dbf
000000d0: 957b 68bf 8675 9bbe 05d4 a6bf 2fa9 6c3f
000000e0: 2e35 77bf 80d6 d8be 23ff 74be d040 58bf
000000f0: cc84 81bf cfe1 473f e9a3 0a3f 1d09 33bf
0.5576354 1.0766057 0.8321243 -0.041715056 -0.44997653 -0.93918836 0.9078295 2.4103532
0.19134164 0.6499373 0.40163824 -0.8539466 1.1236932 0.4271221 -1.3839362 -0.86745423
-0.26890153 -0.5947991 0.9027216 -0.046266895 0.21847957 0.19911706 0.2605298 0.52844024
-0.17313167 0.8891012 -0.19119789 -0.15325816 0.87167895 -0.30015814 -0.32596093 -0.26197523
-0.7548058 -0.11594632 0.93231833 -2.0832567 1.9425366 -0.61733925 0.39787114 0.6789478
-0.9782124 -0.3059125 -0.4580796 -0.5626553 -4.5141463 -0.7918447 1.1138914 0.59681535
1.279177 0.23856638 -0.26612493 -1.1061325 -0.9081357 -0.303631 -1.3033453 0.92445654
-0.9656552 -0.4235115 -0.23925452 -0.84473896 -1.0118651 0.7807893 0.5415636 -0.6993578

sequential_1/batch_normalization_1_2/batchnorm/mul f4 [1, 64]
00000000: 2948 223c d16f 193c ec8f b33c b230 9b3c
00000010: 92ae 9b3c 3b12 323c 4afa ea3c 8d16 813c
00000020: 5b56 7d35 c2d9 193c 0449 5b3c 20d8 1d3c
00000030: d29c 193c a9e3 433c fb90 403c f21b a43c
00000040: eb8e 513c aadc f23b d4b9 4b3c b96b 2f3c
00000050: 45ed 973c 9337 d63c dddf 083b d1a4 d339
00000060: bc8c 3f3c d7a2 8c3c 43ce 953b eefb 653c
00000070: 4090 8c3c 68e4 d03c 43cf 8c3c d010 123d
00000080: b582 143c 1f47 623c 3b2d 2b3c 2e98 303c
00000090: 83fd 5a3c 0fe7 493c 00e5 163c c1f9 923c
000000a0: 68c2 373c 3391 283c 0147 883c e50c a43c
000000b0: da5b d43b ced7 563c 8351 483c f5ef 183c
000000c0: 7b6c 983c abd4 453c 6946 b13c 75c9 073c
000000d0: 2554 043b 04ae 913c c9c2 2d3c f90a 753c
000000e0: d882 2b3c 5a01 ab3c 8890 583c 718d 5d3c
000000f0: a991 7c3c 7694 883c e93f 8f3c 27c1 903c
0.0099049 0.009365038 0.021919213 0.018944118 0.01900414 0.010868604 0.0286838 0.015757823
9.437551e-07 0.009390296 0.0133841075 0.009634048 0.009375768 0.011956134 0.011753316 0.020032857
0.012790422 0.007411559 0.012434442 0.010706835 0.018545756 0.026149547 0.0020885386 0.00040367854
0.0116912685 0.017167492 0.0045717075 0.0140371155 0.017158628 0.025499538 0.017188674 0.035660565
0.009064366 0.013810902 0.0104477955 0.01077847 0.013366106 0.012323155 0.009209871 0.017941358
0.011215784 0.010288524 0.01663542 0.02002568 0.006480676 0.013112975 0.012226465 0.009334554
0.018606415 0.01207463 0.02164002 0.008287777 0.0020191756 0.017783172 0.010605522 0.014956229
0.010468207 0.020874668 0.013218053 0.013522492 0.015415587 0.016672354 0.01748653 0.017670227

sequential_1/batch_normalization_1_2/batchnorm/sub f4 [1, 64]
00000000: 666f 30be e110 17bf 8932 0fbf 1c01 f0be
00000010: bfdd ab3e 08b4 c13e 877b fdbe 6ddb e8be
00000020: 5c30 a7b6 cdaa 3dbf aa0a 10bf 9989 363f
00000030: 5e12 3bbf 2630 ffbe 1c04 f03e 82f6 573f
00000040: 2a57 2b3f ac0f 123e 237f 9abe c3e2 8a3e
00000050: 08f6 0dbf 3157 0cbf 4335 4dbc 1da2 10bc
00000060: afce 523e a100 2fbf 9f9d 033e 85bc 053f
00000070: e807 25bf 8ca2 053f 2dbd b93e 0efd ea3e
00000080: d17c fe3e 2786 183f 9f0d 4abf a1ba 1d3f
00000090: d925 0cbf f3e8 483f 028b 12bf 7970 4abf
000000a0: f200 0f3f e96d e73e 0856 163f bfde f83e
000000b0: 2702 333f aeb1 403f 7813 34bf 3edb 0ebf
000000c0: 7fd3 60bf f359 02be 87b3 ec3e 73fb 3a3f
000000d0: f020 9f3c e002 1c3f 6fb7 f73e 23fa 35bf
000000e0: 50dc 073f 889f d63e 47fb df3e dda7 3e3f
000000f0: 4781 cd3e e065 66bf b597 44bf 112b 353f
-0.17229995 -0.5901013 -0.55936486 -0.46875846 0.33567616 0.37832665 -0.49508306 -0.4547991
-4.9826176e-06 -0.74088746 -0.5626627 0.7130371 -0.730749 -0.49841422 0.46878135 0.84360516
0.66929877 0.14263791 -0.30175123 0.2712613 -0.5545354 -0.54820544 -0.012524906 -0.008827713
0.20586656 -0.68360335 0.12853096 0.5224078 -0.6446519 0.5220115 0.36277142 0.4589619
0.49704602 0.595797 -0.78927034 0.616129 -0.5474525 0.7848045 -0.5724336 -0.7907787
0.5586082 0.45201042 0.58725023 0.48607442 0.6992516 0.7527112 -0.70342207 -0.5580329
-0.8782272 -0.12729625 0.46230718 0.7303993 0.019424886 0.60941887 0.48382136 -0.71084803
0.53070545 0.41918588 0.43746397 0.7447489 0.40137693 -0.899992 -0.76793987 0.7076884

sequential_1/batch_normalization_1/batchnorm/mul f4 [1, 64]
00000000: 45b8 8c40 c9eb 7840 ffe6 0840 e8cf 5e3f
00000010: db02 9f40 e1ae 0640 c0fb 1b40 923f 0140
00000020: c283 d93f 7679 ce3f c1cb 1940 5f0c fb3f
00000030: 515f 1540 98a4 1f40 d361 f53f 1dff 0240
00000040: 73f7 3e40 74e5 6940 d371 1640 345f ef3f
00000050: 2501 a33f 0006 d33f e3a2 7040 dc73 2a40
00000060: 4d4e 2542 3e52 0640 120c 1540 beb3 6d40
00000070: d134 9140 39d6 3d40 a367 b63f 50a9 ef3f
00000080: 61ea 2f41 9dac f23f 467f 9b3f 164d bd3f
00000090: 6d97 1140 7d08 0540 d763 9240 bbfc 9c3f
000000a0: f114 0541 e0f0 8240 ef29 cb3f 22fa 0f40
000000b0: 4d76 f23f 6c32 943f ce7b a53f f310 d640
000000c0: 13c2 913f d780 0240 9803 6a3f 6f40 ea3f
000000d0: c9c1 0840 73c3 c13f c047 c83f f2ff 973f
000000e0: 6fae 6140 024d f53f 7b36 1340 3907 0d40
000000f0: c823 963f 7379 4340 cd81 cc3f ad03 5340
4.397494 3.8893912 2.139099 0.8703599 4.9690986 2.1044238 2.4372406 2.019505
1.6993334 1.6130817 2.4030612 1.961315 2.3339427 2.494421 1.9170479 2.0468209
2.983853 3.6546297 2.3506973 1.8700929 1.2734724 1.6486206 3.7599418 2.6633215
41.326466 2.0987697 2.3288617 3.7140956 4.5376973 2.9662 1.4250377 1.8723545
10.994721 1.8958927 1.2148216 1.478915 2.2748673 2.078643 4.5746875 1.2264627
8.317613 4.0919037 1.5872172 2.249642 1.8942353 1.1577888 1.2928407 6.689569
1.1387352 2.0391138 0.91411734 1.8300914 2.1368277 1.5137771 1.5646896 1.1874983
3.5262716 1.9164126 2.3002002 2.2035658 1.172967 3.0542877 1.5977112 3.2970994

sequential_1/batch_normalization_1/batchnorm/sub f4 [1, 64]
00000000: bdd0 1440 a7ed 3040 9ec6 a740 079f c0bf
00000010: e41d 41c0 78b1 95c0 6363 a2bf 8bd0 9ac0
00000020: 92ee 8ec0 33ce a33f bcb6 be40 f3ad 55c0
00000030: 02f2 b1c0 f4ec c440 d8d0 873e 1bdc 0ebf
00000040: 8f30 d640 e54d a0bf fe3a b2bf 0743 a63f
00000050: 2a9d 0ec0 eb89 96c0 2596 01bf f8c5 e9bf
00000060: 7801 91c0 94a2 7b3f 4023 fc3d 180d af3f
00000070: 5028 f3bf 56a6 35bf 3f99 93bf 7719 2440
00000080: 5c43 b040 2454 eac0 a9c2 4bc0 00d3 e8be
00000090: 00b8 e23a e76f 8ebf ea6d e9bf 0420 06bf
000000a0: 2820 4d40 6f48 5240 8823 e43f 2bf0 b03f
000000b0: 34cb 413f c158 d040 b46a b1c0 980f 9fbf
000000c0: dd65 b940 e0a4 603d 3bc0 3240 a66b d4bf
000000d0: 73cf 1240 eb9a 31c0 58c9 28c0 0725 90bf
000000e0: 1a21 2d40 e01e 9940 0dc0 9940 2464 d73f
000000f0: bc2e a93f fcda ac3f 540f b23f 8036 2b3d
2.3252404 2.7645051 5.2429953 -1.5048531 -3.0174494 -4.6779137 -1.268658 -4.837957
-4.4666224 1.2797302 5.9598064 -3.338742 -5.560792 6.153925 0.26526523 -0.55804604
6.6934276 -1.2523772 -1.3924253 1.2989205 -2.2283425 -4.7043357 -0.5061973 -1.826354
-4.5314293 0.9829495 0.12311411 1.3675871 -1.8996677 -0.70956933 -1.1531142 2.5640543
5.5082226 -7.322771 -3.183756 -0.4547348 0.0017297268 -1.11279 -1.8236668 -0.523926
3.2050877 3.285671 1.7823343 1.3823293 0.7570069 6.510834 -5.5442753 -1.2426634
5.7936845 0.054844737 2.7929828 -1.6595352 2.2939117 -2.7750804 -2.637289 -1.12613
2.7051454 4.785019 4.8046937 1.6827435 1.3217387 1.3504329 1.3910928 0.041800022

sequential_1/dense_1/MatMul f4 [64, 7]
00000000: 47f5 e3be e2e7 06be dcdd fd3e 5618 4d3f
00000010: c098 05be 4385 6abf af1b 0940 0247 ddbd
00000020: 19e9 9abe 8130 75be af6e a8bd e164 40be
00000030: 397b 4ebe d0a0 59bf a1ef 42be 4cb9 53bf
00000040: 0cc3 a8be 33e8 a9be 7c9f d1be 6fc5 0fbf
00000050: bdac 0ec0 af5c 5bbf 5e1d 2ebe bca4 263f
00000060: f220 2e3f edce c73e e5e7 87be ac41 debf
00000070: 1b80 953d 7809 0e3d 7bc2 17be fea4 483e
00000080: cf87 7c3d 1eca 5cbf c745 6f3f dd00 c8be
00000090: bce6 8f3f 63a3 a23f 447b ad3e 3a5d eebe
000000a0: efe0 08c0 f4f2 9bbf 208f d7bc 8bff 453c
000000b0: a3b1 21bf 6196 50bf a41f a2be ff4d bdbe
000000c0: 84c1 49bf 6ade d23d 8c22 7b3f de74 b4be
000000d0: 9201 57bf 6f1e 73be f3e2 3bbf 18d3 1840
000000e0: 83af 383f 9838 09bd 1052 27bf bafa 13bd
000000f0: b746 42be 0bf5 76be 532b ab3f 0164 1f3e
00000100: 09fb 2c3e e9be 1e3f 20ef 1b3e 7945 a23d
00000110: 8ca5 e63e f77c 2c3f e556 d4bf f56d fbbd
00000120: 8f5d d83f d941 353e 8f42 afbf 6682 a1bf
00000130: 94ac ff3f 7d05 7dbf fce3 7e3f 905a 993f
00000140: a01e f43e db87 8dbe ea98 8dbf a28a c0bf
00000150: 9401 9ebf 9e01 22bf a535 1f3f 4fd2 b33f
00000160: 381c 713f 0ca7 7f3c 371f 63c0 036e 153f
00000170: 9baf 743f 9abc ac3e c9e9 0c3f 2ac8 6d3f
00000180: 1430 cc3e 2129 99be 6f3b a23e e8b4 1b3c
00000190: a529 1d3f 229a 2a3f 4ec2 17be 4c61 f83e
000001a0: b650 8a3f 57b7 b7bd 5b16 603f 7321 dc3e
000001b0: bb80 2d3e ad24 323d 1107 87be 8bdf 2e3e
000001c0: 0300 e2bf 2cc6 b8be 227f e23f d6b7 e53e
000001d0: b533 cebf 12c9 87bf 3ed3 d03f 479d b23e
000001e0: f5b6 38bf 4299 80be 0034 e33e 3897 943e
000001f0: 114d 9c3f 87ca 0cc0 db83 82bf 4ae5 17bf
00000200: e7b8 0abf 43db dcbe c40b 89bf 43b0 f1bc
00000210: 5fe4 06bd d08c d3bf ac83 37bf d686 27bf
00000220: 7b36 debe 4d48 40bf 1fa5 eabf 4f36 d83f
00000230: efda 24c0 d17d 763f cf06 d23f 485b 1a3f
00000240: dc4c 933e a2db 8cbe bed9 54c0 4f93 23c0
00000250: b3e7 03bc bc0a 873f 75c0 8c3f 0c83 bc3f
00000260: 11d4 e2be 0d7a 07c0 3791 bcbf a46a 303f
00000270: 2cbe 493f ab24 c33e b76a 59bf 098b b7bf
00000280: 6af8 263f a6c2 943f 7448 bfbd 2c20 953e
00000290: 85ca 963e b4ed 613f 9bc1 3f3f 0d1e d33e
000002a0: 40e5 a3bd 1740 043f f4ef 69bf e89a b63e
000002b0: 6b61 6d3f 6d94 bdbf c7a1 4d3f b2f3 0cc0
000002c0: b8a7 c03f b6ee c03f 4fc3 bdbe 33cf e7bf
000002d0: e061 86bf a5ae 3040 65fa 723f eebc bdbe
000002e0: 49b9 c83d 1959 613e df3e 9d3e 35ad 363f
000002f0: 3a7b 72be 087d 793f d35a 41be 96df 19bf
00000300: 61ee d6bd b47a 263f 1af1 2b3f 4977 63bf
00000310: c9ff ea3e 7b80 99be 0d74 96be f3b3 a7be
00000320: 4c3c bb3e d7bd a83f dda1 c9bf 02e9 74bf
00000330: fb38 94bf 3bae 7cbc cd53 f7be 1fac aabf
00000340: 00cb 3fbf 8342 313f 972a d93e 13a7 5a3f
00000350: ff7d 8dbb 06eb 31bd c703 0bbd f29b d7bf
00000360: dacb f1bc f196 33bf bd7b efbe 44e0 123d
00000370: a31f 74be 5f13 cdbe 005f 4bbf 238a e1bf
00000380: 48f6 983d 211d c5bd 977c 323e 3c07 29be
00000390: 630e 443e 6496 1bbd db8f 5b3e 1799 3bc0
000003a0: 4387 b73f 586a 9c3f a307 173f 596d ec3d
000003b0: 146b 52bf 1add c3bf 4931 e0be afd3 683f
000003c0: ec4c a63f 5049 dc3e 599f afbe 168c 99bf
000003d0: 191b e1bf 89ab c0be 7338 7e3f 72ee 8f3e
000003e0: 069a a33d 3bf4 2dbf e64b 81bf dbf3 f83e
000003f0: b292 a6bf bc4e 3d3f fce3 a83c 7ece 5fbd
-0.4452307 -0.13174394 0.49583328 0.8011526 -0.13046551 -0.9160959 2.1423147 -0.10804559
-0.30255964 -0.23944284 -0.08224236 -0.18788482 -0.20164193 -0.85011005 -0.19036724 -0.82704616
-0.3296131 -0.33184966 -0.4094199 -0.56160635 -2.229293 -0.856883 -0.1700339 0.65095115
0.6801902 0.3902506 -0.2654411 -1.7363791 0.07299825 0.034677 -0.14820282 0.1959419
0.061652955 -0.86245906 0.93465847 -0.3906316 1.124229 1.2706112 0.33883107 -0.465555
-2.1387289 -1.2183518 -0.026313365 0.012084852 -0.6316168 -0.8147946 -0.31664765 -0.3697357
-0.78810906 0.10296328 0.9809959 -0.35245413 -0.8398677 -0.23742078 -0.7339317 2.3878841
0.7214281 -0.033501238 -0.6535959 -0.036127783 -0.18972288 -0.24116914 1.3372597 0.15565492
0.16892637 0.62010056 0.15227938 0.07923407 0.45048177 0.6737818 -1.6589018 -0.12276832
1.6903552 0.177009 -1.3692187 -1.261792 1.9974542 -0.988365 0.99566627 1.1980762
0.47679615 -0.27642712 -1.1062291 -1.5042307 -1.2344232 -0.6328372 0.6219123 1.4048556
0.94183683 0.015603792 -3.5487802 0.5837099 0.9558045 0.33737642 0.5504423 0.9288355
0.3988043 -0.2991419 0.3168597 0.009503581 0.6139167 0.6664144 -0.14820215 0.48511732
1.0805881 -0.08970516 0.8753411 0.4299427 0.16943638 0.043492008 -0.2637258 0.17077462
-1.7656254 -0.36088693 1.7695048 0.44866818 -1.610953 -1.0608237 1.6314466 0.34885618
-0.7215417 -0.25116926 0.4437561 0.2902162 1.2211019 -2.1998613 -1.0196489 -0.5933424
-0.5418839 -0.43136033 -1.0706716 -0.029502993 -0.032932635 -1.6527348 -0.7168529 -0.6544012
-0.4340094 -0.7511032 -1.8331641 1.6891574 -2.5758626 0.9628573 1.6408328 0.60295534
0.28769577 -0.27511317 -3.32579 -2.555866 -0.008050847 1.0550151 1.0996233 1.4727492
-0.4430242 -2.1168244 -1.4731816 0.6891272 0.78805804 0.38113913 -0.8492846 -1.4339305
0.652228 1.1621902 -0.09339991 0.29126108 0.29451385 0.8825333 0.74904794 0.41233864
-0.0800271 0.51660293 -0.91381764 0.3566506 0.92726773 -1.4810921 0.8032498 -2.202374
1.5051184 1.5072849 -0.3706307 -1.8110107 -1.0498619 2.7606595 0.9491332 -0.37058204
0.09800965 0.22006644 0.3071203 0.7135804 -0.2367982 0.9745641 -0.18882303 -0.6010679
-0.10494686 0.6503098 0.67164767 -0.8885389 0.45898274 -0.29980835 -0.29385415 -0.32754478
0.3656944 1.3182935 -1.5752522 -0.9566804 -1.1579889 -0.015422399 -0.48306122 -1.3333777
-0.7491913 0.69242114 0.42415306 0.85411185 -0.0043179984 -0.043437026 -0.03393915 -1.6844466
-0.02951615 -0.70152193 -0.46774092 0.035858408 -0.23840193 -0.4005384 -0.79441833 -1.7620281
0.074688494 -0.096246965 0.1743034 -0.16506666 0.19146113 -0.03798522 0.21441595 -2.9312189
1.4338154 1.2219954 0.5899603 0.11544294 -0.8219464 -1.530185 -0.43787602 0.90948004
1.2992225 0.43024683 -0.3430126 -1.1995876 -1.7586395 -0.3763087 0.99304885 0.28111607
0.07988362 -0.6795079 -1.0101287 0.48623547 -1.3013518 0.73948264 0.020616524 -0.054640286
