python files/new_sin_predictor.tflite (tflite, 10544 bytes, 3 tensors)

tfl.pseudo_qconst1 i1 [1, 64] scale=0.00044033458 zero_point=0
-0.0022016729 -0.03654777 0.007926023 0.035226766 0.021576395 0.0013210038 0.0035226766 -0.036107436
-0.034346096 -0.04139145 0.03742844 0.0017613383 0.0 0.009247026 -0.015852045 -0.003082342
-0.00044033458 0.02686041 -0.040951118 -0.031263754 0.033905763 0.027300743 -0.0070453533 0.04051078
-0.0013210038 -0.013650372 -0.0035226766 -0.0057243495 -0.028181413 0.040070448 0.013210038 -0.029062083
0.0 0.0 0.0026420075 -0.003082342 -0.0039630113 -0.013210038 -0.052399814 0.00044033458
-0.022897398 -0.02597974 -0.023778068 0.033465426 -0.027300743 -0.014971375 0.00088066916 0.009247026
0.054161154 0.028181413 -0.028621748 0.006605019 0.033465426 0.02686041 -0.023778068 -0.0145310415
0.00088066916 -0.0070453533 0.0022016729 -0.045794796 0.055922493 0.04139145 0.013650372 -0.030383086
00000000: fbad 1250 3103 08ae b2a2 5504 0015 dcf9
00000010: ff3d a3b9 4d3e f05c fde1 f8f3 c05b 1ebe
00000020: 0000 06f9 f7e2 8901 ccc5 ca4c c2de 0215
00000030: 7b40 bf0f 4c3d cadf 02f0 0598 7f5e 1fbb

tfl.pseudo_qconst3 i1 [64, 64]
-10 -11 20 -30 0 -12 -3 52
28 31 -3 -15 -54 -78 8 -40
-1 -30 -127 7 -17 98 8 69
39 92 50 28 -56 -38 23 -12
14 60 79 -10 24 -21 -11 -33
64 -22 42 5 -75 -81 109 -58
-35 -13 26 -25 -28 -68 -75 27
1 40 52 -1 -57 3 3 -1
-10 -4 19 -19 -127 -14 5 16
-16 2 -5 42 -1 -92 28 -31
0 -19 -16 -27 -14 -41 11 9
-61 -113 8 43 -107 2 -5 13
-11 27 12 5 13 12 -16 -39
-5 -36 -32 31 0 96 79 29
26 5 43 -23 -3 -16 -22 -18
0 -30 29 -105 24 1 -25 8
21 31 50 18 34 -51 26 -28
28 21 13 16 -41 48 16 -43
-21 -85 32 -15 -24 -67 5 36
124 -75 -71 127 -1 55 -26 -15
24 -24 37 -16 65 -46 -54 58
-74 47 -19 -3 39 77 -20 -1
-51 -4 26 -60 63 -33 30 -26
51 6 39 -32 -13 3 25 33
-10 -24 23 47 -127 16 34 23
33 -35 -21 -28 2 84 -15 56
43 113 -74 -55 -1 35 0 25
-48 -56 62 23 38 -21 -26 -20
24 7 -36 28 53 8 -2 16
60 62 74 -22 -65 21 -24 -36
34 33 7 -13 47 -63 -57 13
15 30 82 -84 -106 -12 32 17
00000000: f6f5 14e2 00f4 fd34 1c1f fdf1 cab2 08d8
00000010: ffe2 8107 ef62 0845 275c 321c c8da 17f4
00000020: 0e3c 4ff6 18eb f5df 40ea 2a05 b5af 6dc6
00000030: ddf3 1ae7 e4bc b51b 0128 34ff c703 03ff
00000040: f6fc 13ed 81f2 0510 f002 fb2a ffa4 1ce1
00000050: 00ed f0e5 f2d7 0b09 c38f 082b 9502 fb0d
00000060: f51b 0c05 0d0c f0d9 fbdc e01f 0060 4f1d
00000070: 1a05 2be9 fdf0 eaee 00e2 1d97 1801 e708
00000080: 151f 3212 22cd 1ae4 1c15 0d10 d730 10d5
00000090: ebab 20f1 e8bd 0524 7cb5 b97f ff37 e6f1
000000a0: 18e8 25f0 41d2 ca3a b62f edfd 274d ecff
000000b0: cdfc 1ac4 3fdf 1ee6 3306 27e0 f303 1921
000000c0: f6e8 172f 8110 2217 21dd ebe4 0254 f138
000000d0: 2b71 b6c9 ff23 0019 d0c8 3e17 26eb e6ec
000000e0: 1807 dc1c 3508 fe10 3c3e 4aea bf15 e8dc
000000f0: 2221 07f3 2fc1 c70d 0f1e 52ac 96f4 2011

tfl.pseudo_qconst5 i1 [64, 7]
-84 30 33 51 -28 -52 -127 114
50 70 55 97 127 -40 -49 90
29 -52 -48 -105 127 -15 -127 -115
80 28 34 27 97 -116 42 64
34 -127 110 -5 -127 60 96 100
4 30 8 35 -99 -65 -127 -79
-123 127 51 70 61 -63 -55 -86
-96 70 64 -127 -113 -115 -81 -33
24 -11 112 49 -127 -27 6 30
-40 32 -82 -24 127 23 -18 37
40 -44 -97 127 -5 -127 -65 -74
103 -21 106 -127 95 -21 -71 74
59 -123 -47 53 31 -60 96 -31
-127 102 -127 -95 94 58 -79 85
-121 -1 101 65 72 1 -127 -1
96 -76 -76 66 6 -127 -106 69
17 -127 61 12 -19 76 117 110
-14 127 56 -60 56 -48 127 75
63 -118 53 -48 8 -10 127 -31
67 -64 57 4 47 61 18 127
29 61 -49 45 5 52 -48 -127
-25 68 8 79 33 -124 127 127
-117 -72 -37 79 -104 65 -66 58
20 10 -107 -127 54 -10 -7 42
80 -78 -64 127 22 -10 -49 95
-36 -64 127 -57 -66 -41 -74 -50
-127 42 -21 -28 -48 44 26 -7
-127 -25 45 62 20 127 121 66
77 45 115 85 101 -33 -127 15
-37 94 -37 10 -15 -127 40 -66
-12 91 -19 -121 127 -106 30 64
-123 51 127 114 -63 6 127 -54
00000000: ac1e 2133 e4cc 8172 3246 3761 7fd8 cf5a
00000010: 1dcc d097 7ff1 818d 501c 221b 618c 2a40
00000020: 2281 6efb 813c 6064 041e 0823 9dbf 81b1
00000030: 857f 3346 3dc1 c9aa a046 4081 8f8d afdf
00000040: 18f5 7031 81e5 061e d820 aee8 7f17 ee25
00000050: 28d4 9f7f fb81 bfb6 67eb 6a81 5feb b94a
00000060: 3b85 d135 1fc4 60e1 8166 81a1 5e3a b155
00000070: 87ff 6541 4801 81ff 60b4 b442 0681 9645
00000080: 1181 3d0c ed4c 756e f27f 38c4 38d0 7f4b
00000090: 3f8a 35d0 08f6 7fe1 43c0 3904 2f3d 127f
000000a0: 1d3d cf2d 0534 d081 e744 084f 2184 7f7f
000000b0: 8bb8 db4f 9841 be3a 140a 9581 36f6 f92a
000000c0: 50b2 c07f 16f6 cf5f dcc0 7fc7 bed7 b6ce
000000d0: 812a ebe4 d02c 1af9 81e7 2d3e 147f 7942
000000e0: 4d2d 7355 65df 810f db5e db0a f181 28be
000000f0: f45b ed87 7f96 1e40 8533 7f72 c106 7fca
