python files/new_sin_predictor.tflite (tflite, 10512 bytes, 3 tensors)

tfl.pseudo_qconst1 i1 [1, 64] scale=0.00057394605 zero_point=0
00000000: cce4 3af5 cafa fd01 bffe 5103 f840 0aa8
00000010: bd02 a6f8 cd34 00a5 0aeb 4b5e 1d1e cef1
00000020: 01f9 060a 294d 041d e8d4 461e fc81 1716
00000030: e753 f5fe 2c3f 1302 3abd 0101 ec00 e1bb
-0.029845195 -0.016070489 0.03328887 -0.0063134064 -0.030993087 -0.0034436763 -0.0017218381 0.00057394605
-0.03730649 -0.0011478921 0.04648963 0.0017218381 -0.0045915684 0.036732547 0.0057394607 -0.05050725
-0.038454384 0.0011478921 -0.051655143 -0.0045915684 -0.029271249 0.029845195 0.0 -0.05222909
0.0057394607 -0.012052867 0.043045953 0.05395093 0.016644435 0.017218381 -0.028697303 -0.008609191
0.00057394605 -0.004017622 0.0034436763 0.0057394607 0.023531787 0.044193845 0.0022957842 0.016644435
-0.013774705 -0.025253626 0.040176224 0.017218381 -0.0022957842 -0.072891146 0.013200759 0.012626813
-0.014348651 0.047637522 -0.0063134064 -0.0011478921 0.025253626 0.036158603 0.010904975 0.0011478921
0.03328887 -0.038454384 0.00057394605 0.00057394605 -0.011478921 0.0 -0.017792327 -0.039602276

tfl.pseudo_qconst3 i1 [64, 64]
00000000: e2e8 85dc fe6a e5e1 00db 0605 e61b f00e
00000010: 9358 dbfc 1ff8 f6b9 e119 1412 cb33 06f2
00000020: ec7f f6e3 33fa ed15 07ee e117 fbf5 f515
00000030: fff5 b61b 2a23 2f02 2c27 e1dd 2f1b fa1d
00000040: fcf8 d51c 00ff f40a fefd e8f8 f8fd 121e
00000050: 0510 8113 fd06 040a ed18 e71c fc20 e4f9
00000060: ee00 0d10 0907 0d04 fff1 15ff 23f4 f226
00000070: 0c0a f50d 0e0a 010a ece9 0d28 0406 0a06
00000080: fb0a 22e2 fb81 11f3 ec08 0306 09f3 02f2
00000090: fd52 acff cf15 fdfb 0ff9 241b fc26 3108
000000a0: ee08 f327 2703 f121 f7d9 d700 f9eb 011d
000000b0: fde0 23cf 4925 080b b821 f9db dff2 9fdb
000000c0: 0410 0f02 09de 02f3 ea01 f2f9 0102 f714
000000d0: 13e3 8101 e8f5 0aff 0cf9 0e25 f2fa fb05
000000e0: eb23 f6f5 01fa f71b f8fd f7f8 0b06 fbfd
000000f0: 0b14 11f3 d3e2 f5f8 f909 0800 f906 f6f8
-30 -24 -123 -36 -2 106 -27 -31
0 -37 6 5 -26 27 -16 14
-109 88 -37 -4 31 -8 -10 -71
-31 25 20 18 -53 51 6 -14
-20 127 -10 -29 51 -6 -19 21
7 -18 -31 23 -5 -11 -11 21
-1 -11 -74 27 42 35 47 2
44 39 -31 -35 47 27 -6 29
-4 -8 -43 28 0 -1 -12 10
-2 -3 -24 -8 -8 -3 18 30
5 16 -127 19 -3 6 4 10
-19 24 -25 28 -4 32 -28 -7
-18 0 13 16 9 7 13 4
-1 -15 21 -1 35 -12 -14 38
12 10 -11 13 14 10 1 10
-20 -23 13 40 4 6 10 6
-5 10 34 -30 -5 -127 17 -13
-20 8 3 6 9 -13 2 -14
-3 82 -84 -1 -49 21 -3 -5
15 -7 36 27 -4 38 49 8
-18 8 -13 39 39 3 -15 33
-9 -39 -41 0 -7 -21 1 29
-3 -32 35 -49 73 37 8 11
-72 33 -7 -37 -33 -14 -97 -37
4 16 15 2 9 -34 2 -13
-22 1 -14 -7 1 2 -9 20
19 -29 -127 1 -24 -11 10 -1
12 -7 14 37 -14 -6 -5 5
-21 35 -10 -11 1 -6 -9 27
-8 -3 -9 -8 11 6 -5 -3
11 20 17 -13 -45 -30 -11 -8
-7 9 8 0 -7 6 -10 -8

tfl.pseudo_qconst5 i1 [64, 7]
00000000: da5b d4f9 0bae 81ce c409 8192 af2f 8e7f
00000010: c3bf f156 c493 6311 2d81 e21c 0381 13fe
00000020: f351 239b 3318 c07f 42b9 1e09 81c4 57c8
00000030: d92b 96d1 5781 9faa d677 1d3b 812e 48a2
00000040: 1316 a2a7 81be f406 e24e f581 7b79 7f53
00000050: 0aee 2ad1 54f1 237f d6ff d04c 7fed 5a5a
00000060: 63eb 8185 f7f8 56d7 8dc8 8104 dece 0d09
00000070: 8167 c9be 0d0d 0081 d615 e5c4 101a a37f
00000080: e19e ec63 417f dd93 baf6 3c2f d837 b260
00000090: d121 7ffd 034e c4af f87f 65d1 37d2 e57f
000000a0: 5bfd 14f1 2adb 997f 8df9 9f83 810c b792
000000b0: 187f 2273 a36b 5205 a132 cbf8 81a5 954f
000000c0: f081 1550 fb32 b434 81fb 3c9b 4915 f36a
000000d0: 4b81 e9ab 67d3 81cd 6cc3 03c0 ecf7 217f
000000e0: 7f66 f0dc 919b 6278 a57d 2ad5 7faf f440
000000f0: af17 9a81 a2d0 a535 f97f 855e f006 37a8
-38 91 -44 -7 11 -82 -127 -50
-60 9 -127 -110 -81 47 -114 127
-61 -65 -15 86 -60 -109 99 17
45 -127 -30 28 3 -127 19 -2
-13 81 35 -101 51 24 -64 127
66 -71 30 9 -127 -60 87 -56
-39 43 -106 -47 87 -127 -97 -86
-42 119 29 59 -127 46 72 -94
19 22 -94 -89 -127 -66 -12 6
-30 78 -11 -127 123 121 127 83
10 -18 42 -47 84 -15 35 127
-42 -1 -48 76 127 -19 90 90
99 -21 -127 -123 -9 -8 86 -41
-115 -56 -127 4 -34 -50 13 9
-127 103 -55 -66 13 13 0 -127
-42 21 -27 -60 16 26 -93 127
-31 -98 -20 99 65 127 -35 -109
-70 -10 60 47 -40 55 -78 96
-47 33 127 -3 3 78 -60 -81
-8 127 101 -47 55 -46 -27 127
91 -3 20 -15 42 -37 -103 127
-115 -7 -97 -125 -127 12 -73 -110
24 127 34 115 -93 107 82 5
-95 50 -53 -8 -127 -91 -107 79
-16 -127 21 80 -5 50 -76 52
-127 -5 60 -101 73 21 -13 106
75 -127 -23 -85 103 -45 -127 -51
108 -61 3 -64 -20 -9 33 127
127 102 -16 -36 -111 -101 98 120
-91 125 42 -43 127 -81 -12 64
-81 23 -102 -127 -94 -48 -91 53
-7 127 -123 94 -16 6 55 -88
